malconv.pt (torch, 273943 bytes, 4 tensors)

embed.weight f4 [257, 8]
000000 9a 53 f9 3f 3f 3b c2 3f ef 9a 76 3f 27 3e 07 c0
       1.9478638 1.517433 0.9633016 -2.1131685
000010 a0 0a 47 3f 06 6c ab bf 44 54 68 bb ed 82 cf bf
       0.7775059 -1.3392341 -0.0035450617 -1.621183
000020 ac 87 5e bf b0 7f e3 3f 24 ee d2 be db 47 b5 bf
       -0.8692577 1.7773342 -0.41197312 -1.4162554
000030 22 2c 84 bf 83 dc 3c bf 4f f6 68 bf 6a 50 6b 3f
       -1.0325968 -0.73773974 -0.9100084 0.9191958
000040 a1 1f d5 3f ee 2d cc be ee 96 45 bf 3a 9e f0 3e
       1.6650277 -0.39878792 -0.77183425 0.46995717
000050 ad 02 86 bf 71 e7 a5 3f f7 e1 8c 3f 50 a2 00 40
       -1.0469567 1.2961255 1.1006459 2.0099068
000060 fa b5 9d 3f eb 24 ce 3f 41 ea 4a 3f a1 0b e4 3f
       1.232116 1.6105016 0.79263693 1.7816049
000070 af ff be be ea 02 91 3e f6 57 be be 9b 94 8a 3f
       -0.37304446 0.28322536 -0.37176484 1.0826601
000080 5c e4 d7 bf 94 75 88 bf d0 20 82 be 41 a1 fa 3f
       -1.6866565 -1.0660882 -0.2541566 1.9580461
000090 2a 80 96 3e 74 9b be be 43 83 aa 3e aa 9b 41 bf
       0.29394656 -0.37227976 0.3330327 -0.7562815
0000a0 a7 71 e7 bf 4c 01 88 3f cb ea 5a bf bc e6 8e be
       -1.8081559 1.0625396 -0.85514516 -0.2791041
0000b0 9c 5b c9 bf 37 d3 11 40 a0 48 d1 bf 11 07 08 bf
       -1.5731082 2.2785165 -1.6350288 -0.5313578
0000c0 40 4b 82 bf 9c 80 62 bf 48 1e fb bd 7f 23 2c 3f
       -1.0179214 -0.8847749 -0.12261635 0.6724166
0000d0 8c 06 14 bf 68 ec b0 3f c0 6a 42 bf 8f 95 0d bf
       -0.5782249 1.3822145 -0.7594414 -0.55306333
0000e0 f6 69 be bf 8e 81 22 bd 5a 5b 28 be bb 26 51 3f
       -1.4876087 -0.039674334 -0.16441098 0.81699723
0000f0 06 4a 3d be 87 4f 00 40 a0 98 a7 bf 0d 0c be 3f
       -0.18485269 2.004854 -1.3093452 1.4847428
000100 7a f3 a4 3f 60 66 2d 3f e1 b2 06 40 dc 51 16 3f
       1.2886803 0.67734337 2.104668 0.5871866
000110 c1 b6 9c 3e d7 6e f4 bd 90 3c 82 bf 73 9d a6 3f
       0.3060818 -0.119352035 -1.0174732 1.30168
000120 5c 21 9d be 5a 0a df 3e d2 dd b5 bc 2f d0 1b 3f
       -0.30689514 0.43562585 -0.022200499 0.6086454
000130 84 d6 d8 3e cd 7b 07 bf 50 cf 0e c0 52 07 14 bf
       0.42351162 -0.5292328 -2.2314034 -0.5782367
000140 b5 9f 94 be b2 b7 4a bf 74 37 d2 bf b3 e8 89 be
       -0.29028097 -0.79186547 -1.6423173 -0.26935348
000150 ce ff dd 3e 4d 47 50 3f a1 1f b8 3f 92 0a e6 3e
       0.43359226 0.81358796 1.4384652 0.4492994
000160 0f 33 49 3f 72 55 d3 be ca 90 80 bf 5d c7 3a 3f
       0.78593534 -0.41276127 -1.0044186 0.72960454
000170 5b 87 e3 bf 33 5e 46 bf 11 ac ab 3f 4c 7a 17 3f
       -1.7775682 -0.77487487 1.3411885 0.59170985
000180 b2 78 2a c0 db a5 ae 3e dd df 16 3f 34 0c 20 3e
       -2.6636167 0.34110913 0.5893534 0.15629655
000190 94 28 14 3f a1 80 42 3f 32 61 90 3f fa 3e bc be
       0.5787442 0.7597752 1.1279662 -0.36766797
0001a0 a9 2e 7b be 09 c5 3b 3f 0f 80 a6 3e f7 75 63 3e
       -0.24529518 0.73347527 0.32519576 0.22212969
0001b0 90 6b 99 3e b5 b9 a0 3f 9c c4 93 bd 0a 9e 9c be
       0.29964876 1.2556673 -0.07215235 -0.30589324
0001c0 01 b9 c4 bf 3d ae 35 be 36 ff 14 bf b0 71 da 3e
       -1.5368959 -0.17742248 -0.5820192 0.42664862
0001d0 ee 4f 6a 3f 66 fa f2 3b 92 44 01 bf a1 3a dd 3e
       0.91528213 0.0074151037 -0.50495255 0.43208793
0001e0 57 e8 2c be 8d 3e a1 3e f4 0f b5 3e 8f 6e 7f 3f
       -0.16885506 0.31493035 0.35363734 0.99778074
0001f0 09 d0 a8 3f b6 5d cc 3e ea ca fb 3e 95 a7 13 3f
       1.3188487 0.39915246 0.4917825 0.57677585
000200 55 84 01 40 d9 ef 54 3f 51 38 e4 bf 34 cc 7f bf
       2.023702 0.8317848 -1.7829686 -0.99920964
000210 cc 0e d8 be e8 4c f8 3f c6 2d 66 3f f4 dc 5a 3f
       -0.4219879 1.939847 0.89913595 0.854934
000220 07 5e 84 3f cb 6e 50 bd 91 ec ef bf 74 92 85 3f
       1.0341195 -0.05088691 -1.8744069 1.0435319
000230 8d f7 ea be 51 57 97 3f 80 8d 3e bf ab 6b 48 3f
       -0.4589199 1.1823522 -0.7443466 0.7828929
000240 8a 2c 72 bf 49 1e 6d 3f 64 45 cb 3f 66 e3 b5 3f
       -0.9459921 0.92624336 1.5880551 1.4210021
000250 57 76 8c 3e 4c 83 41 be 51 f6 58 bf 9e 91 4d 3d
       0.27434036 -0.18897742 -0.8475085 0.0501877
000260 79 c0 9b 3e 8b ad 8d 3f f6 2b c4 be f6 a5 d1 3f
       0.30420282 1.1068586 -0.3831479 1.6378772
000270 8a d5 23 c0 c4 40 c5 be fb e6 a8 bf 50 96 4d 3f
       -2.5599084 -0.38525975 -1.319549 0.80307484
000280 ec c9 ff bf cf 88 a1 3e 6e c8 62 3d 55 17 89 be
       -1.9983497 0.3154969 0.055366926 -0.26775613
000290 85 3b 54 3e 04 49 43 bf cc 9a 8a bd c3 5b 90 bf
       0.2072583 -0.7628329 -0.067678064 -1.1278003
0002a0 1b 1a d2 bf 7b ae b5 3f b5 0e a7 3f 8f 83 b3 3d
       -1.6414217 1.4193872 1.3051363 0.08765327
0002b0 ed 62 c3 bf 5d 90 3d 3f bf 9b 3a 3f 66 77 01 40
       -1.5264565 0.74048406 0.728939 2.0229125
0002c0 fc a7 03 be 39 10 2f 3d c0 d7 7d bf a1 34 ab bd
       -0.1285705 0.04274008 -0.99157333 -0.083596475
0002d0 0a ce 7a bf 99 f7 b1 bf 3b 96 83 bf 41 42 bc be
       -0.9797064 -1.3903686 -1.0280222 -0.36769298
0002e0 b9 b5 17 bf 87 b6 cb bf 97 80 fe bf 95 1e 80 3e
       -0.5926166 -1.5915078 -1.9882993 0.25023332
0002f0 a4 fd 71 3f a4 f3 1e bf 9d a2 2c 3f d4 80 43 3f
       0.9452765 -0.62090516 0.6743563 0.7636845
000300 e3 f7 cc 3f e5 d3 92 bf 93 90 61 3f a4 9f 84 be
       1.6013149 -1.1470915 0.8811123 -0.25903046
000310 c1 f1 8e bf cc 72 0f 3f c4 60 1b 3f 28 c6 b8 3f
       -1.1167527 0.5603454 0.6069453 1.4435472
000320 86 a3 21 3f 98 aa 08 40 71 54 03 bf 41 67 83 bf
       0.6314014 2.1354122 -0.5130072 -1.0265886
000330 0a 2a 42 3e 08 92 8a 3f 78 f4 bb 3f 2c 89 06 3f
       0.18961349 1.0825815 1.4683981 0.5255306
000340 de 5d 5a bf 86 85 80 bf 3b 4f e3 be 60 f3 0c bf
       -0.8529948 -1.0040748 -0.44396386 -0.5505886
000350 b7 4e 0c 3e 27 5a ca 3e a4 ab 65 be 26 eb 11 c0
       0.13701902 0.39521906 -0.22428757 -2.2799773
000360 99 a2 09 bf 28 ab 78 3f df 3c e4 bf cc 4f cb 3f
       -0.5376373 0.97136164 -1.7831076 1.5883727
000370 0a 23 7e 3e 11 e7 dc be cb a4 84 3f 0c e7 e7 3f
       0.24818054 -0.4314504 1.0362791 1.8117385
000380 b7 e0 8b bd d8 34 dc 3f e2 64 01 3e 41 61 7e bf
       -0.0682997 1.7203627 0.1263614 -0.9936715
000390 5a 2b 2c bf 91 d9 f0 3d 2b 1e 77 3e cc 6f 01 40
       -0.6725365 0.117602475 0.24132602 2.0224485
0003a0 17 c4 7f be 58 de 7a bf c7 27 0a c0 3d 4e 7d bf
       -0.24977146 -0.9799552 -2.1586778 -0.9894751
0003b0 b7 71 75 bc 8e 66 ab 3d 76 ce 9a 3d 67 98 f8 3e
       -0.014980725 0.0836917 0.075589105 0.48553774
0003c0 f5 02 63 bf 84 ab 7e 3e bd e5 fb be d2 b1 f6 3e
       -0.8867639 0.24870116 -0.49198714 0.4818254
0003d0 45 9e 59 bf 9e 07 db bc e7 09 d6 be 41 68 b9 3f
       -0.85007125 -0.02673703 -0.4180443 1.4484941
0003e0 44 ad a4 3f b0 5c 40 bf a7 9e 5f 3f 2a 49 cc 3e
       1.2865376 -0.7514143 0.8735146 0.3989957
0003f0 97 10 17 3f 4d 09 0e 3f 8b 20 db 3e 0d f3 54 3e
       0.5900969 0.5548294 0.42798266 0.20795842

conv.weight f4 [256, 8, 32]
000000 74 81 11 be 7c 41 e1 3d 2b a6 24 3d e5 d4 13 3d
       -0.14209539 0.10998818 0.040197533 0.036091704
000010 7c ff 9a bc ea c7 63 bd 26 5d 62 3d 06 f0 f4 3d
       -0.018920653 -0.055610575 0.055264615 0.11959843
000020 26 cb 58 bd 46 cb 34 3c 9f a9 0e bc 55 72 45 3d
       -0.052928112 0.011034792 -0.008707433 0.04820474
000030 b3 95 3a 3d 6f 12 32 3d ff 01 3e bc 4f 98 50 bb
       0.04555292 0.04347461 -0.011597156 -0.0031829064
000040 59 71 c1 3d 32 f4 0a 3c c6 78 a5 3d c6 86 01 3d
       0.094454475 0.008481072 0.08079676 0.03162267
000050 d2 57 ce 3c a8 e5 97 3d e0 9f 9f bd d6 80 08 be
       0.02518836 0.0741685 -0.077941656 -0.13330397
000060 75 90 9b 3d b9 74 6c 3d ff bb c1 bb c7 85 a2 bd
       0.07595912 0.057728503 -0.0059123035 -0.07935672
000070 27 ac 91 3d 42 29 4a 3d 38 02 62 3d 21 66 b5 bb
       0.071129136 0.049355753 0.055177897 -0.0055358564
000080 4e 49 68 bd e5 8a 52 bd 7c 9c 95 3d 2d c6 ab 3d
       -0.056710534 -0.05140199 0.07305238 0.083874084
000090 90 be 12 3c ae 00 10 bd dc 82 98 3d d3 10 83 3d
       0.008956566 -0.0351569 0.074468344 0.06399693
0000a0 ea ac 63 bd 90 7f 1f 3d e0 69 e4 3d bf 48 a1 3c
       -0.055584826 0.038940012 0.111530066 0.019688008
0000b0 0d 32 a5 3d 13 e9 35 3d 18 58 4d 3d 66 bc 9e 3d
       0.08066187 0.04441173 0.05013284 0.07750778
0000c0 27 74 9a 3d 34 ac 4f 3d bf 20 25 3d 0b 2a b5 3d
       0.075416856 0.050701335 0.040314432 0.0884591
0000d0 c5 35 27 3d 11 ec 36 3c 99 19 36 3c b8 a2 0d be
       0.040822763 0.011164681 0.011114501 -0.13831604
0000e0 11 53 44 3d b5 70 85 3d 7a 0b d8 bb 49 f9 40 3d
       0.04793078 0.06515638 -0.006593165 0.047112737
0000f0 74 b4 30 3a e9 82 6b 3d 80 bb 76 3c 9f e6 a3 3d
       0.0006740757 0.057497893 0.015059352 0.08002972
000100 f9 b8 e6 3d 82 18 41 3d b7 0f 5a 3d ab bd 7e bc
       0.112657495 0.047142513 0.053237643 -0.01554815
000110 23 b4 60 bd 59 9b 2a be fa b3 50 3d 8d ce bb 3d
       -0.05485929 -0.16660823 0.05095289 0.09170256
000120 f2 f2 34 3b df aa 36 3c 3a 9d fe 3c 18 b5 ae bd
       0.0027610627 0.011149137 0.03108083 -0.08530635
000130 90 22 d3 3d a3 e4 43 3b 7d 52 39 3d 58 cf 8f bc
       0.10309327 0.0029890917 0.045244683 -0.017554924
000140 36 a0 20 3b b9 c8 34 3d 10 e0 a7 3d 78 4f 00 3e
       0.0024509556 0.044136737 0.081970334 0.12530315
000150 9e e8 c1 3d 66 43 68 3d 5c 6e 05 be a7 fc 0a be
       0.09468196 0.0567049 -0.1303038 -0.13572942
000160 c0 4c ca bd dc 40 3d bd ad bc 4a 3c 90 33 30 3d
       -0.0987792 -0.046204433 0.012374085 0.043017924
000170 ca 80 c6 3d bd 3f 52 3d b2 11 9f bc d6 3e 05 3d
       0.09692533 0.051330317 -0.019417617 0.03253063
000180 eb c0 cd 3d c7 40 f9 3d 0a 66 57 bd 1b 6b 5d bd
       0.10046562 0.121705584 -0.052587546 -0.05405722
000190 d2 f0 3e bd 2b d1 f5 3b 18 ad 16 3d a4 f9 2c bd
       -0.046616383 0.0075017414 0.03678617 -0.042230263
0001a0 71 59 57 3d 8c 85 31 3d 46 fe 9a bd b3 cc 8d 3d
       0.052575532 0.04334025 -0.0756803 0.06923809
0001b0 fd 0e 39 bd 62 df c1 bc 4a 74 36 bd 1d c2 a2 bd
       -0.04518031 -0.023666088 -0.044544496 -0.079471804
0001c0 2d 59 90 bc ea da 16 bd c4 52 97 bd 4b b7 37 3c
       -0.017620647 -0.036829866 -0.07388833 0.011213134
0001d0 7e 19 96 bd 75 ae b0 bd 90 34 b4 bb 99 b0 ca 3c
       -0.07329081 -0.08627025 -0.00549943 0.024742411
0001e0 bb 06 c1 3c a9 06 e4 bc 5c 49 56 3d 89 39 93 bd
       0.02356278 -0.027835207 0.052316055 -0.07188708
0001f0 fa d0 77 bd a2 17 05 bd 29 e3 2c 3c dc 53 92 3c
       -0.06050203 -0.03249324 0.010552206 0.017862253
000200 89 86 91 3d d4 15 14 be 51 e1 0b 3c e3 11 3b 3b
       0.07105739 -0.14461452 0.008537606 0.0028544597
000210 ab 69 63 bd 86 f5 74 bd 47 62 d9 bc 33 92 e3 3d
       -0.055520695 -0.059804462 -0.02653612 0.1111187
000220 0a 20 e2 3c d9 41 10 be 2f 8c 82 3d 05 0b a4 3d
       0.027603168 -0.14087619 0.06374394 0.08009914
000230 a2 94 29 3d 6f 7a 3a 3d c8 00 18 bd ce 3b 52 3d
       0.041401513 0.045526918 -0.03711012 0.051326565
000240 dc 48 8b bb d8 ee 8e 3b ec ad 68 3c 5b f4 ac 3d
       -0.004250629 0.0043619685 0.014201622 0.084450446
000250 19 a5 c0 3d 9a e2 ef 3c a8 04 28 bd 7f e4 4b bc
       0.0940649 0.029282857 -0.041020066 -0.012444614
000260 06 85 0a be a7 f1 26 bd a6 20 c9 3c 54 d4 a0 3d
       -0.13527307 -0.0407578 0.0245517 0.078529984
000270 15 0c bc 3d df cc cb bc 3e 75 38 3a ed 60 57 3c
       0.09181992 -0.024877964 0.00070365134 0.0131456675
000280 f6 68 ba bc 79 1f 94 3b e5 11 20 bd ac 81 82 bd
       -0.022755127 0.0045203534 -0.039079566 -0.06372389
000290 f3 40 ff 3c 4e d3 b2 3d 0e 25 f5 bc 17 8f be bd
       0.0311589 0.087317094 -0.029924896 -0.09304636
0002a0 34 57 33 3d 95 a6 a7 3c b8 cb 48 3b 3b 0d 9e bb
       0.043784335 0.020465175 0.0030639004 -0.0048233545
0002b0 78 fd 0a bc 09 47 6f bd e5 77 ee bc 0d f4 0a bd
       -0.008483283 -0.058417354 -0.029109905 -0.03392415
0002c0 07 d3 cd bc 24 7b 5c bd 76 0f 6c bd 9d b9 41 bd
       -0.02512504 -0.053828374 -0.057631932 -0.047296155
0002d0 c9 ad 06 bd de b8 d7 bd 3e 3d b1 bc 17 af 2f 3e
       -0.03288058 -0.105333075 -0.021635648 0.17156635
0002e0 df e4 cb bd 6d c0 67 3d 4c 82 62 bd 8c 56 76 bd
       -0.09955763 0.056579996 -0.055300042 -0.06014113
0002f0 2a d0 9b bd 2a 6b 26 3b 6d b7 11 3d a5 29 ba bc
       -0.076080635 0.0025393465 0.03557532 -0.022724936
000300 87 08 5f bd 2c 08 04 be d8 1a 5f bd 55 ea a9 bd
       -0.05445149 -0.12893742 -0.05446896 -0.082966484
000310 66 29 a7 3d eb 94 58 3d ec b0 14 bc 76 a8 c7 3c
       0.08162193 0.052876394 -0.009075385 0.02437232
000320 ed 07 09 3d b8 b5 a4 bb 32 bc 82 3d 2b 0b 0b be
       0.033454824 -0.0050265454 0.06383552 -0.13578479
000330 03 a1 8e bd 89 49 3b bc 99 50 2f bb 61 79 98 bd
       -0.06964304 -0.011431106 -0.002675092 -0.07445026
000340 06 83 42 3a 76 2c 8a bd 97 45 3a bd eb 12 04 bb
       0.00074200367 -0.067467615 -0.045476522 -0.0020152878
000350 c1 a3 a3 3d 2a 80 c5 bc 89 9d d4 3d 98 39 50 bd
       0.07990218 -0.024108965 0.1038161 -0.050836176
000360 9c 92 85 3d 15 22 a7 3d fa f6 8b 3d f2 d0 3a bd
       0.06522104 0.081607975 0.068342164 -0.045609422
000370 91 c3 37 bd 5e 44 21 bc 5e a1 f9 3c cf 48 1a 3c
       -0.04486424 -0.00984296 0.030472454 0.009416773
000380 3e e9 02 3e 70 72 97 bc 78 99 af bd 91 04 fa bd
       0.12784287 -0.018487185 -0.08574194 -0.12207902
000390 77 98 29 bd c9 d1 f3 3c c5 29 e0 ba 30 69 c0 bd
       -0.041405167 0.02976312 -0.0017102292 -0.09395063
0003a0 50 0b c6 3b 35 0f c8 bb f8 9b f6 bc 70 12 b9 bd
       0.006043829 -0.0061053284 -0.030103669 -0.0903672
0003b0 dd 0c 73 bd aa 15 ac 3c 97 16 73 3c 64 6f a8 bb
       -0.05933844 0.021006424 0.014836929 -0.005140232
0003c0 85 4c 17 bd 76 e6 11 bc 7f d1 52 bc b4 db 90 bd
       -0.03693821 -0.008905044 -0.012867331 -0.07073155
0003d0 4d 3b 78 bd 2b fa 99 bd b9 0e 54 3d 9d 58 a6 bc
       -0.06060343 -0.07518419 0.051771853 -0.020305926
0003e0 f3 05 f9 3c 37 69 21 3d 0a b0 b3 3d 43 a0 a5 3c
       0.030398345 0.03940698 0.08773811 0.02021802
0003f0 24 05 36 bd 80 7d cb bc a0 3a 3b bc 40 f7 01 bc
       -0.044438496 -0.024840117 -0.0114275515 -0.007932484

conv.bias f4 [256]
000000 c7 a5 b9 3c c5 3e 43 bc ea 8e 24 bd 8d e7 a0 bc
       0.022662057 -0.011916821 -0.040175356 -0.019641662
000010 a4 ad ef bb ca ba d6 bc f3 7f 0a 3c d1 77 b4 bb
       -0.0073144007 -0.026212115 0.008453357 -0.0055074473
000020 f6 a0 d5 bc 93 80 a3 bc ec c4 ea bb 82 18 71 bc
       -0.026077729 -0.01995877 -0.007164588 -0.014715316
000030 15 d2 d5 bc 8f 77 3b 3d f1 8d 1d 3d 91 a7 a3 3c
       -0.026101151 0.045768317 0.038465444 0.019977363
000040 67 bd a0 bc 81 5c 26 bd 52 c7 b5 3c 23 79 1e 3c
       -0.019621564 -0.040615562 0.02218977 0.009672436
000050 03 0c d6 bc 11 6a 8d 3d ea d4 03 bd 13 b6 66 3d
       -0.026128775 0.06904996 -0.032185473 0.056325983
000060 ce ca 5b 3a b2 3c 8a bc 9a 85 59 3d a4 be 09 3d
       0.0008384407 -0.016874645 0.053105928 0.033629075
000070 bd 58 42 3d 34 69 c7 3c b7 88 52 bc cb 72 6f 3d
       0.04744791 0.024342157 -0.012849978 0.058459084
000080 47 3e a7 3c 0a 0a ae 3c 20 95 62 bd 06 9c 32 3a
       0.020415438 0.021245021 -0.055317998 0.00068134104
000090 6c 79 fc bb 41 bb 24 3d 5c f7 7a 3d 85 ca fb bc
       -0.0077049043 0.04021764 0.061271057 -0.030736217
0000a0 08 1b 8b 3d 1e c1 ae 3c 34 e3 60 bd 55 26 77 3c
       0.06792265 0.02133232 -0.054904178 0.015084823
0000b0 c3 c3 43 bc 86 40 9e bc a4 69 6d 3b a6 70 39 3d
       -0.011948529 -0.019317877 0.0036226297 0.045273446
0000c0 0e 85 e6 bc 62 4c cb bc 9c dc 4f 3d e9 c1 ac bc
       -0.028139617 -0.024816696 0.0507475 -0.021088557
0000d0 37 9b 81 bd 0f 9d 8f 3d a6 b3 6e 3d 74 ce 7b 3d
       -0.06328433 0.070123784 0.058276795 0.061476186
0000e0 74 5b 21 bd 40 51 e1 3c ac e6 97 bc a6 1e 0d 3d
       -0.039393857 0.027504563 -0.01854261 0.034453057
0000f0 fd 2c 19 3d 2b 01 d7 bc ee 22 7c 3d 9d c0 2c 3d
       0.03739642 -0.026245674 0.06155675 0.042175878
000100 d5 39 ab ba 78 8b 3b 3c 2e ba 30 bb ad e2 4d bd
       -0.00130635 0.011446826 -0.002696644 -0.050265003
000110 81 5e c9 3c a3 44 26 3d 01 ce 43 bd 6b 6f 03 3b
       0.024581196 0.0405928 -0.047803883 0.0020055424
000120 90 54 87 3c 98 d2 0c bd 10 bc e1 3c d6 d7 53 3d
       0.016519815 -0.034380525 0.027555496 0.05171951
000130 bb 00 3e 3b 1f 50 5d 3d eb 76 86 3d ee 59 ea 3c
       0.0028992135 0.054031488 0.065656506 0.028607335
000140 0b 53 39 bc 5b dd 12 bd 85 48 69 3d 80 fa ee 3b
       -0.011311303 -0.035855632 0.056953926 0.0072930455
000150 c9 4f 8e 3c e1 3a 71 bd 89 7a 19 bd 79 b1 01 bd
       0.017372029 -0.058894042 -0.037470374 -0.03166339
000160 7c 77 68 3d 63 02 9a bc d8 47 1a 3d f6 55 6d 3d
       0.056754574 -0.018799966 0.03766617 0.057943307
000170 81 c0 81 3c 78 82 0d 3c 0b 38 4b bd 0f ba 46 bd
       0.015838863 0.008637063 -0.049613994 -0.048517283
000180 0f 88 22 bd 8f 83 59 bd 5e 57 71 3d 5b 64 88 3c
       -0.039680537 -0.05310398 0.05892121 0.016649416
000190 3e 64 22 39 fd 76 6d 3d 95 35 1e bd 66 14 cf 3d
       0.00015486867 0.057974804 -0.03862532 0.101113126
0001a0 aa 82 2b 3d d0 7d 02 3d 0d 16 1f bd 1b 4b 57 bd
       0.041872658 0.031858265 -0.03883939 -0.05256186
0001b0 bd 2d bb bc 82 65 33 bd 46 87 f5 3c 9a 01 2e 3b
       -0.022848958 -0.043797977 0.02997173 0.0026551248
0001c0 23 20 40 3c f8 39 e9 bb ad 61 34 3c 3f 6c 60 3d
       0.011726412 -0.007117506 0.011009616 0.05479073
0001d0 53 58 d6 3c 55 89 40 bd 9f cb b4 3c e8 cb 2e 3d
       0.026165163 -0.04700597 0.02206975 0.04267493
0001e0 05 23 2c 3d f4 4d e6 3c 9e a1 6d 3d 82 13 9c 3d
       0.042025585 0.028113343 0.05801546 0.07620908
0001f0 b8 a3 4c 3d c1 59 f4 bc ca 48 45 3d 6a 64 60 bd
       0.049960822 -0.029827954 0.04816512 -0.054783262
000200 9a 3b 10 3d 4e 3f 08 3d 39 9c 0d bd ac e1 32 bb
       0.03521309 0.033263497 -0.034572814 -0.0027295155
000210 2b 06 2c bd de 0e 8e 3d 81 40 4e bd f8 09 10 bd
       -0.04199807 0.069364294 -0.050354484 -0.035165757
000220 1d 26 6a 3c 73 e8 29 bd fd 36 7f bc 62 75 96 3d
       0.0142913135 -0.041481446 -0.015577075 0.07346608
000230 8f aa 07 bd 21 24 22 bd 71 62 54 3c 37 3d 9a bc
       -0.03312164 -0.039585236 0.012962923 -0.018828018
000240 73 0f c3 3b da 31 08 3d e1 ce 78 bd a5 50 54 bd
       0.0059527694 0.033250667 -0.06074417 -0.05183472
000250 3b 2b 42 3d 6e c9 8d bb 34 e2 5c 3d cf f9 f0 bc
       0.04740451 -0.004326991 0.05392666 -0.029415993
000260 85 e6 67 bd ad 0c 02 bd b6 23 84 bd bb a0 83 ba
       -0.056616325 -0.03175037 -0.06452124 -0.0010042408
000270 c4 81 58 3d 2d ba fc 3c ac 29 f9 3c d7 54 84 bb
       0.05285813 0.030850494 0.030415379 -0.004038434
000280 e4 4b 11 3d 35 0b ab bc 5a f7 90 bc 4c b3 cd 3c
       0.035472766 -0.020879367 -0.017696071 0.02510991
000290 2c df 6b 3d 2a e4 e8 ba f4 a2 1d bd 83 d4 32 bd
       0.05758588 -0.0017768194 -0.038485482 -0.0436597
0002a0 00 1a a7 bc 98 ac 48 bd be dc 84 3d f4 7d d7 3c
       -0.02039814 -0.048992723 0.06487416 0.026305176
0002b0 16 2e 06 3d c3 ec fa bb 92 51 e9 bc 29 a7 0a bd
       0.032758795 -0.0076576187 -0.028481279 -0.033850823
0002c0 19 00 9f bc 78 85 d7 bb db d2 8a bc 6a 88 1c 3d
       -0.019409226 -0.00657719 -0.016946247 0.038216032
0002d0 c9 73 2f 3c db 26 3e 3c 69 a6 96 3c dd 87 9e 3c
       0.010708758 0.011605944 0.018389897 0.019351894
0002e0 d0 3e f6 3c 86 92 c7 3c a2 f8 e4 3d 5d 7d f4 3c
       0.030059248 0.02436186 0.111802354 0.029844934
0002f0 80 e6 19 bd c5 7a 81 3c ce 98 16 bd 35 e6 35 3c
       -0.037573338 0.015805611 -0.03676682 0.011102249
000300 f4 72 67 bd 8c 03 5c 3a 79 e2 5f bd c2 5b 05 bd
       -0.056506112 0.00083928625 -0.05465934 -0.03255821
000310 7d 5d 86 3d 15 3b 64 3a 9b 9a 58 bd 30 48 2e bd
       0.065608 0.00087063137 -0.05288182 -0.042549312
000320 ad 14 02 3d 7e a2 45 bd 61 fa d0 bb a6 3f 3a bd
       0.031758 -0.048250668 -0.0063775037 -0.045470856
000330 0a 99 89 3d 33 f8 13 bc e9 bb 71 bc d8 d6 00 bd
       0.06718643 -0.009031343 -0.014754274 -0.03145489
000340 71 66 fd bc 14 d8 68 3b 68 d0 34 3d c8 ef 47 bd
       -0.030932637 0.0035529183 0.044144064 -0.048812658
000350 41 57 87 bc 31 cd b0 bb 18 37 a7 3d 81 79 10 bd
       -0.016521098 -0.0053955545 0.08164805 -0.035272125
000360 3c 15 24 bd f9 18 35 3d da f5 ef 3c 25 0c 9c 3c
       -0.040059313 0.04421327 0.029292036 0.01904876
000370 c6 13 87 bd 5f f0 8c bd 1d ab 19 3c c5 68 d8 3c
       -0.06595568 -0.06881785 0.0093791755 0.026417146
000380 70 26 83 3a 44 c3 59 bc b5 00 55 bc ed dc 5b 3d
       0.0010005962 -0.013291184 -0.013000657 0.053677488
000390 ee 42 7f 3c c4 44 ec bc 42 e1 6a bd 07 46 89 3c
       0.015579922 -0.028841384 -0.05734373 0.016757024
0003a0 75 14 68 bc 44 76 0b 3d ba b8 8a 3d 20 4f 57 bd
       -0.014165034 0.034048334 0.06773515 -0.052565694
0003b0 c6 49 c8 3c 2a a5 27 3d b1 5c 18 bd 7f ed ef 3c
       0.02444924 0.040928997 -0.037197772 0.029288052
0003c0 26 13 2c 3d a5 94 fb 3c fc cc 2c 3d 60 e0 bf bc
       0.04201045 0.030710528 0.042187676 -0.02342242
0003d0 d9 83 cc bc b1 d6 16 3d ce 25 2d 3d 53 cf 56 bd
       -0.024965214 0.03682584 0.04227238 -0.052443814
0003e0 fc 6d 69 bd fd 48 8a bd 4b 18 3b 3d 98 c7 4e 3d
       -0.056989655 -0.06752203 0.045677464 0.050483316
0003f0 b6 be 19 bd ee 89 09 3c 4f 1a f9 3c d0 f0 82 bb
       -0.03753539 0.008394701 0.030408053 -0.0039959922

fc.weight f4 [1, 128]
000000 11 c6 c7 bd 98 70 4b 3d 37 6c ae bd ee bd e0 3c
       -0.09754575 0.049667925 -0.08516734 0.027434316
000010 e3 ea b1 3d a6 5b a1 3d 9f ba 0b be fb d0 cf bc
       0.08687379 0.07878809 -0.13645409 -0.025368204
000020 1f cd aa 3d 4e 12 0a bd 14 1f ab 3d a9 cc d8 bd
       0.08339905 -0.033708863 0.08355537 -0.10585911
000030 5b 42 57 bd 44 b9 b9 3d d0 0a 7c 3d df 8b de bc
       -0.052553516 0.0906854 0.06153375 -0.027166305
000040 9f fe 81 bc 02 a0 09 3e af 0e 1a 3e 51 d8 85 3d
       -0.015868483 0.13439944 0.15044664 0.065354
000050 d7 79 84 3d bd 1b 0d 3e e3 80 9d 3d cf 12 88 bd
       0.064685516 0.13780113 0.07690599 -0.066442125
000060 13 36 a0 bd 0e 38 c0 bc cc c7 2d 3d 41 49 ae bd
       -0.07822814 -0.023464229 0.04242687 -0.08510066
000070 d9 21 40 3c 81 8c 0f bd b0 37 04 be e8 bc be 3d
       0.01172682 -0.035046104 -0.12911868 0.09313375
000080 d3 49 6f 3d e9 94 b8 3d f3 88 9f bd e5 ee bb bd
       0.058420014 0.09012777 -0.07789793 -0.09176425
000090 01 50 9b 3d 6c 8e 8c bd 73 a1 ee 3d f3 f8 cf 3d
       0.07583619 -0.06863102 0.11651888 0.10154905
0000a0 37 bc 78 bd 8e e0 04 3e 51 50 31 3d 07 f7 0c be
       -0.06072637 0.12976286 0.043289486 -0.13766108
0000b0 80 3b d7 3c f6 4d ad bc 42 29 c0 bd b2 87 c6 3d
       0.026273489 -0.021155339 -0.09382869 0.096938506
0000c0 55 75 a3 bd 6d 7d 8b bd 1f 33 82 bc 2d bc 19 bd
       -0.07981364 -0.068110324 -0.015893517 -0.037532974
0000d0 54 2b 93 bd 03 72 83 3d 2f 1a 5c 3d 05 4f 03 be
       -0.071859986 0.064182304 0.053735908 -0.12823112
0000e0 05 3a 0a 3d 9d 2f ff 3d 73 8e c2 bd e5 60 f3 3d
       0.033746738 0.124602534 -0.09499826 0.118837155
0000f0 ca e5 c5 3d da 45 c1 bd 53 ad 49 3d be cd 8a 3d
       0.096629694 -0.09437151 0.04923756 0.067775235
000100 8e b4 89 bd 6a fd ab bd ad bc b0 3d 12 9a 35 bd
       -0.06723891 -0.08397944 0.08629737 -0.044336386
000110 ad 87 c1 3d 34 d1 f1 3d d3 cf 93 3d 16 48 ee bd
       0.09449706 0.118074805 0.07217374 -0.11634843
000120 44 01 83 bd 81 d4 bb 3d df 15 10 3d ed 3b f8 3d
       -0.06396726 0.09171391 0.035177108 0.12120805
000130 59 f9 f5 3d cf 32 33 bd a4 f1 8a bd 18 79 a1 3d
       0.1201045 -0.043749627 -0.067843705 0.07884425
000140 81 b4 cd 3d 2e 3a c2 3c 03 fd 2b 3e 6d 66 6e bd
       0.10044194 0.023709383 0.16795735 -0.05820315
000150 b3 a5 80 3d 99 d0 9f bd 50 79 f3 3c e9 46 99 3d
       0.062816046 -0.07803459 0.029720932 0.07484228
000160 6c 1b 50 3d 05 97 58 3d b8 c2 b3 3d b2 5d 38 3d
       0.0508074 0.0528784 0.08777374 0.04501123
000170 aa fd 2a be f9 e2 79 bd 9d da 0c 3d 2c 03 a3 3d
       -0.16698328 -0.061007474 0.034388173 0.07959589
000180 37 dc 0d bc 29 f6 11 bd b5 fa 30 be 0f d6 6b 3d
       -0.00865846 -0.035635147 -0.17283137 0.05757719
000190 ff 92 49 3d 64 c9 ec bd ba 44 84 3d d1 85 cf bd
       0.049212452 -0.1156185 0.06458421 -0.10132945
0001a0 52 c0 15 3d de 1a d9 3d 02 d7 9d 3d ea 7d cc 3c
       0.036560364 0.10600828 0.07707025 0.024962384
0001b0 4b 6b 8a bd 4b 6d b4 3d 7c e6 91 bb e7 ea a8 3d
       -0.06758746 0.088099085 -0.0044525247 0.08247929
0001c0 a6 a7 a7 3d bb 49 91 bd 87 b1 37 bd 8e 8f da bd
       0.08186273 -0.07094141 -0.044847038 -0.10671912
0001d0 f9 b0 89 3d 9b 62 9e 3d 42 62 90 3d 9a af 80 bd
       0.06723208 0.07733651 0.07049991 -0.06283493
0001e0 80 73 8a bb 52 df 8c bd bd 42 9f 3d c3 ac f3 bd
       -0.0042251945 -0.068785325 0.07776401 -0.11898186
0001f0 43 ab e5 bc 63 fe f4 bd a3 31 cb 3d d4 b2 81 bd
       -0.028035766 -0.11962583 0.09921577 -0.06332937
